results/rnn_model.pt (torch, 85084 bytes, 6 tensors)

lstm.weight_ih_l0 f4 [256, 13]
000000 1c 8f eb bd c2 79 be bd a4 8b 63 3d a0 05 8c 3c
       -0.11501905 -0.09300567 0.055553094 0.017092526
000010 60 64 1b bd 78 9e 48 3d 48 ab 3f bd fc ee 72 3d
       -0.037937522 0.048979253 -0.046794206 0.059309945
000020 f4 d9 16 bd 7a d6 96 3d 06 71 dd bd ba bd b0 3d
       -0.03682895 0.07365127 -0.10812573 0.086299375
000030 e0 67 93 bd 88 86 de 3d 74 dc 6f 3d 60 1b aa bb
       -0.07197547 0.108655035 0.05855985 -0.0051912516
000040 22 18 e1 3d 72 8a 9f 3d 1c 2c 8c bd 12 20 c6 3d
       0.10990931 0.07790078 -0.06844351 0.09674086
000050 cc 7e a6 3d d2 1a c5 3d 00 d0 46 ba 9a 2f a4 bd
       0.08129653 0.09624256 -0.0007584095 -0.08016892
000060 98 02 fd bd e2 b1 9a bd 9e 12 f6 bd e8 a9 69 bd
       -0.1235401 -0.0755346 -0.1201527 -0.0570468
000070 c6 6a 9d 3d e0 17 7a 3d d2 4a ef bd de 8c b7 3d
       0.07686381 0.061057925 -0.11684193 0.08962415
000080 52 d1 8b 3d 64 cc 89 3d 84 f1 35 bd 00 16 f7 3b
       0.06827034 0.067284375 -0.04441978 0.0075404644
000090 e0 b4 16 3d 92 3d ca bd b0 0e d5 bc 8e 2c b6 bd
       0.03679359 -0.09875025 -0.02600798 -0.08895217
0000a0 70 a5 c6 3c e0 91 6b bd 22 1c 80 3d 42 3d df 3d
       0.024248809 -0.057512164 0.06255366 0.10900356
0000b0 88 96 2b bd b6 5c cf 3d 14 d3 b1 3d c0 df 1c bb
       -0.041891605 0.10125105 0.08682838 -0.0023937076
0000c0 88 20 b4 3d c6 eb f2 3d e4 1c 72 3d 8e 61 e0 bd
       0.08795267 0.118613765 0.059109583 -0.10956107
0000d0 68 fe 09 bd d6 c3 9f bd b8 9c ab 3c b0 11 3e 3d
       -0.033689886 -0.078010246 0.020948753 0.046403587
0000e0 2e 65 c2 bd 80 da b1 bb e0 7e df bd e4 4f 41 bd
       -0.09491955 -0.0054276586 -0.10912871 -0.04719533
0000f0 20 d5 75 3c 22 d5 f7 bd 88 46 9f 3c ca 13 fe bd
       0.015004426 -0.12101199 0.019442812 -0.12406118
000100 58 a1 18 3d b6 d7 d4 3d 48 78 c3 3d 22 bc b9 bd
       0.037263244 0.10392706 0.09544426 -0.090690866
000110 e8 42 d9 bd 18 60 96 3d b4 40 59 3d 4c b9 d4 3d
       -0.106084645 0.07342547 0.05304022 0.10386905
000120 48 33 d1 bc b0 cb 1a bc cc b7 be bd 50 b8 84 3c
       -0.025537148 -0.009447977 -0.093124 0.016201168
000130 70 c3 21 bd fc 0d 79 bd a8 d9 7d bd 40 4c f6 bc
       -0.039493024 -0.060804352 -0.06197515 -0.030065656
000140 b8 83 4f bd 18 9d 13 bd c6 fd 8d 3d fc bc b2 bd
       -0.050662726 -0.03603849 0.06933169 -0.08727452
000150 60 68 5f 3c 38 90 a4 3d ca 8c ca 3d de f8 92 3d
       0.013635725 0.0803532 0.09890135 0.07176374
000160 b4 f5 21 3d 60 cf 03 bd 18 65 4e bd a8 94 9c bd
       0.03954096 -0.03218019 -0.05038938 -0.076455414
000170 c6 a6 ce 3d 9c d3 3f 3d 84 af 25 bd 8a 30 bb 3d
       0.10090403 0.046832666 -0.040450588 0.091401175
000180 80 ad 84 bd 8c fb 22 bd a2 0c af bd c0 b1 b9 bb
       -0.06478405 -0.039790675 -0.085473314 -0.0056669414
000190 1e 99 e3 bd 66 bb d2 3d 48 e9 89 bc 1a 2c c7 3d
       -0.11113189 0.1028965 -0.01683487 0.097252086
0001a0 e8 65 4c 3d 84 1a 63 bd f0 3d ce bc 5c f5 b4 3d
       0.049901873 -0.05544521 -0.025176018 0.08835861
0001b0 3c b1 22 3d b8 ab d2 3d 68 f2 73 bd 2a 7c ef 3d
       0.039719805 0.10286659 -0.05955735 0.11693604
0001c0 ea 2b f2 bd 04 c9 f6 bd d0 12 03 bc b6 42 e7 bd
       -0.11824782 -0.120500594 -0.008000091 -0.11292021
0001d0 14 fc fc 3d a0 70 39 3c d6 90 b3 3d 68 5e 16 3d
       0.123527676 0.011318356 0.0876786 0.036711127
0001e0 58 fc d7 3c d4 0c 1d 3d f4 3e 1f bd c0 6e 8c bd
       0.026365444 0.038342312 -0.038878396 -0.068570614
0001f0 20 c3 87 3d 9c 15 f8 bd 70 aa fe 3d 60 6d b4 bb
       0.06629014 -0.12113497 0.12434852 -0.0055062026
000200 70 2c 55 bc 0e 7b a4 bd dc 7d 40 bd da 8c ba 3d
       -0.013011083 -0.08031283 -0.04699503 0.091088966
000210 e8 4e e8 bc a4 62 62 bd f0 e6 96 3c 00 6d 35 3d
       -0.028357938 -0.055269852 0.018420666 0.044293404
000220 24 6a 70 bd 02 f8 e9 3d 6c 20 26 3d 90 c9 84 bd
       -0.058694974 0.11424257 0.040558264 -0.064837575
000230 72 8d f9 bd 18 8c bc 3c 60 84 29 3d 4c 8d 42 3d
       -0.12185182 0.02301602 0.04138601 0.047498032
000240 44 30 96 3d 3c 98 d8 bd 40 62 82 bc c8 33 a1 3c
       0.07333425 -0.105759114 -0.01591599 0.019678012
000250 80 12 2a 3b e2 77 c4 bd 3a bd 99 3d 20 b8 4b 3c
       0.0025950968 -0.09593178 0.07506795 0.012434036
000260 20 02 b9 bc 66 9e 8f 3d e0 03 c4 bb e8 42 dc bc
       -0.022584021 0.07012634 -0.0059819072 -0.026887372
000270 74 29 32 3d 70 89 46 3d d8 20 f6 3c 00 78 94 38
       0.043496564 0.048470914 0.030044958 7.079542e-05
000280 04 97 4a 3d 24 f6 d9 bd 50 30 8a bc a0 67 53 bc
       0.049460426 -0.10642651 -0.01686874 -0.012903124
000290 f4 13 96 bd 34 89 e1 3d b6 35 fd bd 30 19 24 bd
       -0.073280245 0.110124975 -0.1236376 -0.040063083
0002a0 5e 82 df 3d 4c 0e 44 bd c0 df c0 3d e6 d9 ea bd
       0.109135374 -0.047865197 0.09417677 -0.11467342
0002b0 7e 67 f7 3d a8 1d ac 3c 56 a7 f3 3d 18 74 6f 3d
       0.120802864 0.021010235 0.11897151 0.058460325
0002c0 1a 61 8b 3d 38 64 e1 3d cc a2 ee 3d 80 75 1f bd
       0.0680563 0.11005443 0.11652145 -0.038930416
0002d0 60 c0 ff bd 54 8d a5 bd 10 ce 07 3d 64 6b a6 3d
       -0.124878645 -0.08083597 0.0331555 0.08125952
0002e0 74 61 07 bd 24 9e 36 3d f4 2c 6f 3d 06 87 b6 3d
       -0.033051923 0.04458441 0.05839248 0.089124724
0002f0 40 f8 1a bb 58 4c a1 3d 4c 78 eb bd 98 c3 1e bd
       -0.0023646504 0.078758895 -0.11497554 -0.03876075
000300 64 7f b3 3d 80 9c f5 bb 18 3d ca 3d 80 58 4a bd
       0.08764532 -0.007495463 0.09874934 -0.049400806
000310 06 8e a1 bd a0 60 47 bd 00 52 7f 3c 8c 02 88 3d
       -0.07888417 -0.048676133 0.015583515 0.06641111
000320 30 64 3a bd 3e b4 e3 3d 00 8f 88 bc 42 c2 ce bd
       -0.045505702 0.11118363 -0.01666975 -0.100956455
000330 00 23 f6 bc 78 4d 1c 3d 28 15 ae bd d0 f7 bc bc
       -0.030045986 0.038159817 -0.08500129 -0.023067385
000340 78 58 c7 3d b4 98 7b bd 1a 57 d0 bd b8 4f 92 bd
       0.09733671 -0.061424926 -0.10172863 -0.071441114
000350 1e a1 c4 3d 86 e1 cb 3d 88 92 44 3d c4 64 f1 3d
       0.09601043 0.099551246 0.047991306 0.11786798
000360 06 ff c2 3d 40 68 aa bd b0 82 05 bd d6 6c ea bd
       0.09521298 -0.08320665 -0.032595336 -0.1144654
000370 00 14 6c bd ae 92 ac bd 00 e5 32 ba 20 d4 e0 bc
       -0.05763626 -0.084264144 -0.0006824285 -0.0274449
000380 90 c9 71 bd b8 a5 9b bc 98 44 8c 3d f4 3d 5d bd
       -0.059030116 -0.01899992 0.06849021 -0.05401416
000390 f4 bf 72 bd 32 da 8d bd e8 7d aa 3d 54 03 02 3d
       -0.059265092 -0.06926383 0.08324796 0.031741455
0003a0 e4 f2 98 bd c8 fa ef 3c 78 97 fb 3c ee 92 e2 3d
       -0.07468203 0.029294387 0.030711874 0.11063181
0003b0 80 70 25 3b 74 f3 de bd 00 c8 96 3a 50 27 7d bc
       0.0025244057 -0.10886279 0.0011503696 -0.015451267
0003c0 4e d3 b6 bd 9a a1 ad 3d 2c 15 4e 3d 30 86 c4 bd
       -0.08927022 0.08478089 0.05031316 -0.09595907
0003d0 4a eb 86 3d a0 25 0b bc 7c a3 a1 bd 28 c2 28 3d
       0.065878466 -0.008492857 -0.0789251 0.041200787
0003e0 cc 1d 03 bd 06 ed e9 3d 2a ab e3 bd 50 e4 e6 bc
       -0.03201084 0.11422162 -0.11116631 -0.02818504
0003f0 78 f5 3d 3d 12 eb 9f 3d 84 0a 63 3d 78 ac 76 bd
       0.046376675 0.07808508 0.05542995 -0.060223073

lstm.weight_hh_l0 f4 [256, 64]
000000 40 1b b7 3d c0 5c ab bd 10 dc 23 bc a0 5f a2 bb
       0.089407444 -0.083673 -0.010001197 -0.004955247
000010 80 d0 ee bb c6 a0 fc bd 78 c4 30 bd 00 78 4d bb
       -0.0072880387 -0.123353526 -0.043156117 -0.0031352043
000020 80 03 21 bb 70 a5 1a bd d6 8a e5 3d 20 a6 4f 3c
       -0.0024568737 -0.03775543 0.112081215 0.012673885
000030 4e 12 d2 3d c0 d7 01 3b de e7 b3 3d f0 c6 e5 3d
       0.102573976 0.0019812435 0.087844595 0.11219585
000040 fe 59 f7 bd 00 94 1e b9 90 bc cf bc f4 87 b1 3d
       -0.120777115 -0.00015123188 -0.025358468 0.08668509
000050 88 5f df bc 5c e9 6c 3d e4 0b 47 3d 28 da ab 3d
       -0.027267233 0.057839736 0.048595324 0.083912194
000060 44 db cf 3d 14 f2 2b bd 78 18 9a bc a0 a5 da bc
       0.101492435 -0.04197891 -0.018810496 -0.026690304
000070 38 0c 82 bc 8e 2c a6 3d 3c ec 0e bd 00 b4 75 ba
       -0.015874967 0.08113967 -0.03489326 -0.00093728304
000080 76 32 c7 3d dc 4d 94 bd 48 13 38 bd 9c cb f5 3d
       0.097264215 -0.07241413 -0.044940263 0.12001726
000090 36 fb 9d bd bc ff 05 bd f4 28 1d bd e8 49 32 bd
       -0.0771393 -0.03271459 -0.038369134 -0.043527514
0000a0 ce 0f be bd e2 68 d0 3d c0 2b 83 bc 46 a0 8a 3d
       -0.09280358 0.10176255 -0.016012073 0.06768851
0000b0 8a b0 cd bd 5c e9 9e 3d 22 26 dc bd f0 70 10 bd
       -0.10043438 0.077593535 -0.10749461 -0.035263956
0000c0 c6 6f 9c 3d 7e f0 e3 3d 00 33 23 bd 92 c7 9e 3d
       0.076385066 0.111298546 -0.03984356 0.07752909
0000d0 84 6c ae bd 04 96 7c bd fc c5 e4 bd 10 ec 47 3d
       -0.085167915 -0.061666504 -0.11170575 0.04880911
0000e0 a0 69 ec 3b 74 46 b5 bd 96 3e 96 bd fe ad a3 bd
       0.00721474 -0.088513285 -0.07336156 -0.07992171
0000f0 28 bb 6e bd a6 aa c9 3d 40 4f f3 3c 16 70 82 3d
       -0.058283955 0.09847002 0.029700875 0.06369035
000100 c0 1f 82 3d 82 7d c5 bd 28 ec 59 3d 10 fa 78 3c
       0.06353712 -0.09643079 0.05320373 0.015196338
000110 00 87 55 bd c6 b5 c3 bd 60 6b c1 bc 50 30 49 bc
       -0.0521307 -0.09556155 -0.02361077 -0.012279585
000120 14 61 58 3d 52 fa a0 3d 78 22 e7 bc b0 fe 83 3d
       0.052826956 0.07860245 -0.028214678 0.06445062
000130 94 76 e3 3d 26 79 c1 bd e8 7e d8 bd a0 7f 0b bc
       0.11106601 -0.09446935 -0.105710804 -0.008514315
000140 f0 f3 4d bd a8 f6 e1 3d 82 0b bc 3d 78 6d f7 3d
       -0.050281465 0.11033374 0.091818824 0.120814264
000150 00 80 a4 3c 30 b6 28 bc 64 e0 cd bd a0 4e eb 3d
       0.020080566 -0.010297343 -0.10052565 0.11489606
000160 88 8d fa 3d d4 66 91 3d 60 ef ba bb 9e d3 b2 bd
       0.12234026 0.07099691 -0.0057048053 -0.08731769
000170 08 6b 0c bd c0 f8 c4 bc d4 ce 6c 3d 30 5d 38 bd
       -0.03428176 -0.024044394 0.057814434 -0.045010746
000180 9c 76 f7 3d e6 9a b9 3d 12 26 a2 3d dc 5e ea bd
       0.1208317 0.09062748 0.079174176 -0.11443874
000190 96 97 db bd e0 5f c8 3d f8 a3 d5 3c 9c ed ed bd
       -0.10722272 0.09783912 0.026079163 -0.11617586
0001a0 a8 c8 d6 3d 5e d7 fe bd 34 12 26 bd fe 18 df 3d
       0.10487491 -0.12443422 -0.040544704 0.10893439
0001b0 aa ca af 3d cc ba 52 bd c0 05 13 bb a4 47 4b 3d
       0.08583577 -0.051447675 -0.0022433847 0.04962887
0001c0 6e 20 b8 3d 50 bb bb 3d 48 fd f6 bd f6 0d 97 bd
       0.089905605 0.091665864 -0.12060028 -0.0737571
0001d0 e4 f9 f5 bd f0 4d ea bd 30 2e 40 bd d0 05 03 3d
       -0.120105535 -0.11440647 -0.046919048 0.031987965
0001e0 e6 42 f0 3d 98 2e b0 bc a0 be 69 bc 42 ce c5 bd
       0.1173151 -0.021506593 -0.01426664 -0.09658481
0001f0 80 d7 d8 3a 6a cd b5 3d d6 31 a2 bd c0 b5 5e bc
       0.0016543716 0.0887707 -0.07919662 -0.013593137
000200 a0 c5 47 3d 26 fa d9 3d 54 c4 71 bd ac a1 34 3d
       0.048772454 0.10643415 -0.059025124 0.044099495
000210 d0 fb 8d bc 30 fa 23 3c 98 bd 8d 3d c4 17 b6 3d
       -0.017331988 0.01000838 0.06920928 0.08891252
000220 18 53 66 3d ae 54 fe 3d 68 8e e7 3c 00 3d d8 bd
       0.056231588 0.12418495 0.028266147 -0.1055851
000230 c0 ea 08 bb 16 e0 80 3d 86 d6 b8 3d 76 e3 89 3d
       -0.0020891875 0.06292741 0.09025292 0.06732838
000240 d0 30 3a bd 68 d3 34 3d c8 97 35 bd 26 ec d0 bd
       -0.045456707 0.044146925 -0.044334203 -0.10201292
000250 cc 60 1b bd 60 cc 45 3c 00 4f 1c 3c dc 7a 2c 3d
       -0.03793411 0.012072653 0.009540319 0.042109355
000260 be 50 ad bd 82 43 eb bd b0 c1 18 3d dc 74 0d bd
       -0.08462666 -0.114874855 0.03729409 -0.034535274
000270 d4 70 e8 bd 96 4c 93 3d b4 f9 74 3d 52 16 ac 3d
       -0.11349645 0.07192342 0.059808448 0.08402695
000280 0a bd 9c 3d ac 9f c9 3d a0 fc b2 3c 12 d8 a7 3d
       0.07653244 0.09844908 0.021848977 0.08195509
000290 38 27 54 3d 20 4c f8 bc c2 32 ec bd 6e cb 95 3d
       0.051795214 -0.030309737 -0.11533119 0.07314192
0002a0 d0 f6 92 bd 4c 23 8c bd cc 40 3e 3d 3e 5b 80 bd
       -0.07175982 -0.0684267 0.046448514 -0.06267403
0002b0 08 ac 83 bc 18 6d fe bc 18 ea f4 bd 1c 21 6f 3d
       -0.016073242 -0.03105788 -0.11958712 0.058381185
0002c0 00 16 d2 ba 78 2f e3 3d a0 a0 a8 bc 10 72 a2 3c
       -0.0016028285 0.11093038 -0.020584404 0.01982978
0002d0 3e a2 88 3d e0 1c f6 bb e8 7c b9 3c 68 80 b8 bc
       0.0667157 -0.0075107664 0.022642568 -0.022522166
0002e0 9c 06 47 3d 76 f7 e5 bd 48 5d 45 bd f4 c1 60 bd
       0.048590288 -0.1122884 -0.048184663 -0.054872468
0002f0 94 27 e1 bd 56 0a cf bd c4 92 30 bd c0 c5 30 3d
       -0.10993877 -0.10109393 -0.043108717 0.04315734
000300 74 8d b8 3d c4 01 c9 bd 00 82 d8 3c 42 d7 ac 3d
       0.09011355 -0.0981479 0.026429176 0.08439495
000310 a8 d8 c1 3c 20 b3 2c bc ba a9 a3 3d 00 6e 24 3a
       0.02366288 -0.010540754 0.07991357 0.0006272495
000320 14 15 4a bd d0 c2 1f bc 84 8d bb 3d 9c 66 3a bd
       -0.049336508 -0.009751037 0.09157851 -0.045508012
000330 d8 2e 68 bd ec 6d 0a 3d 10 99 bb bd 50 c2 b3 bc
       -0.0566853 0.033796236 -0.09160054 -0.021943241
000340 20 d0 b2 3d 1c de b9 3d fa 85 c0 3d e6 44 f8 bd
       0.08731103 0.09075567 0.09400554 -0.12122516
000350 ac 6e f4 bd 30 48 f2 3c 64 b8 f1 bd 8c 68 b2 3d
       -0.119351715 0.029575437 -0.11802748 0.08711347
000360 3c e4 97 3d 3e cc 99 3d 72 e9 fc bd 10 9e a4 3c
       0.07416579 0.07509659 -0.12349214 0.020094901
000370 c4 58 40 3d 3c ce 45 bd 30 9d 97 bc ba e1 d7 bd
       0.046959653 -0.048292384 -0.01850757 -0.10541101
000380 ec c4 91 bd 00 1b 27 bd 2e 0c 8c bd 1c 84 11 3d
       -0.07117638 -0.040797234 -0.068382606 0.03552638
000390 26 0d 89 3d e2 9b 9c bd 00 00 94 3b a8 e5 86 3c
       0.06691961 -0.0764692 0.0045166016 0.01646693
0003a0 20 0e 0f 3d f4 41 32 3d 02 bd 95 bd 08 d9 c3 3d
       0.03492558 0.04351993 -0.07311441 0.0956288
0003b0 4c 90 84 bd ac 56 c2 bd 34 02 e0 3d a4 6b 04 3d
       -0.06472835 -0.094891876 0.1093792 0.032329217
0003c0 ea d4 c2 bd ac de b7 bd 70 0f 15 3d 5c b2 22 3d
       -0.095132664 -0.08978018 0.036391675 0.039720878
0003d0 cc 53 1d bd e8 cd fb bd 8a 83 de bd a0 00 b7 bc
       -0.038409993 -0.12295133 -0.10864933 -0.022339165
0003e0 90 ce 1a 3c 5e 0d 84 3d 7c 9e 73 bd 66 ee e3 bd
       0.009448662 0.06447862 -0.059477314 -0.11129455
0003f0 00 cf 20 3a 72 ce a5 3d c4 86 38 3d 00 e9 de 3d
       0.0006134361 0.08096017 0.045050398 0.10884285

lstm.bias_ih_l0 f4 [256]
000000 06 b8 ac 3d 1c e2 8e 3d 10 94 d9 bc 20 dc 54 3c
       0.08433537 0.06976721 -0.02655986 0.012991935
000010 f8 e9 92 3d 6a 0c db bd c0 0d df 3b c4 30 00 3d
       0.07173532 -0.10695727 0.006807059 0.031296507
000020 a8 3f bc 3c 7c 05 e5 3d 72 af a4 bd 80 e4 01 3c
       0.022979572 0.11182687 -0.08041276 0.007928014
000030 b8 48 5f bd 24 6f f6 3d 34 83 b2 bd 80 01 18 bd
       -0.05451271 0.12032917 -0.08716431 -0.037110806
000040 1c df f7 bd 28 c8 e9 3c e0 bc 8a bd f6 2e 8e 3d
       -0.121031016 0.028537825 -0.06774306 0.06942551
000050 3c c0 64 bd d0 85 79 3d 84 91 89 bd b8 3c 26 bd
       -0.05584739 0.06091863 -0.06717208 -0.04058525
000060 f0 c2 0f bd c8 38 28 3d 90 69 69 3d d0 b5 63 3d
       -0.035098016 0.041069776 0.056985438 0.05559331
000070 c4 ef 2e 3d 90 80 f7 3c b8 77 00 3d 90 f3 ee bc
       0.042709127 0.03021267 0.031364173 -0.029168874
000080 de 8e be bd 84 d1 23 3d 80 12 c6 bc 00 87 04 bb
       -0.093045935 0.03999473 -0.024178743 -0.0020222068
000090 cc 7a f5 bd 30 5b ed bc f8 57 3b 3d 58 6f 78 3d
       -0.11986312 -0.028974146 0.04573819 0.06065306
0000a0 d8 72 f7 bd 89 c4 ac 3d a4 a9 54 bd 40 55 0b bb
       -0.120824516 0.084359236 -0.051919594 -0.002126053
0000b0 ea 37 82 bd 64 0c 86 3d 20 d9 c8 bc 8c 35 52 bd
       -0.06358321 0.06545332 -0.024517596 -0.051320598
0000c0 66 8b c7 bd 52 48 eb 3d 4c a8 98 bd d0 58 45 3d
       -0.09743385 0.114884034 -0.07453975 0.0481804
0000d0 ca 35 c8 3d 44 be ff bd c8 e8 62 3d d8 6c c1 3c
       0.097758844 -0.12487462 0.05539778 0.023611471
0000e0 c0 9b 70 3c 38 2a 50 3d 88 8e a6 bc b8 6c f7 3d
       0.014685571 0.050821513 -0.020331636 0.12081283
0000f0 6e 46 99 bd f0 59 e6 3c b4 19 75 bd 8c 26 c2 bd
       -0.074841365 0.028119057 -0.059838966 -0.094800085
000100 08 62 ba 3d 1e a8 83 bd 2a 2e 87 bd 34 3b 29 3d
       0.09100729 -0.0642855 -0.06600602 0.041316226
000110 e8 6c b1 bc 58 26 bd 3c c0 ae 3b bc f4 15 b7 3d
       -0.021658376 0.023089573 -0.011455238 0.08939734
000120 7c 61 10 3d 24 72 c3 3d f0 27 88 3d cc 8e 10 3d
       0.03524922 0.09543255 0.066482425 0.03529243
000130 96 a5 81 bd 80 a8 ae bb 00 e1 ee 3c 20 40 d6 bd
       -0.06330411 -0.0053301454 0.029160023 -0.104614496
000140 b4 58 f3 3d f2 5a 98 bd 44 04 0b bd a8 c6 b9 bc
       0.11882153 -0.074392214 -0.033939615 -0.022677734
000150 7c 81 2e 3d e8 58 1a bd a2 fe a7 3d 84 36 8d 3d
       0.042603955 -0.037682444 0.08202864 0.06895164
000160 f8 39 14 3d 78 13 48 3d 92 b1 ce 3d 58 36 99 3c
       0.036188096 0.04884669 0.100924626 0.018702671
000170 4c 40 03 bd 12 35 82 3d a0 16 ec bb 7c 01 b1 3d
       -0.03204374 0.063577786 -0.0072048455 0.08642861
000180 6c 9c b2 bd a8 83 c2 bc 54 19 9b 3d 20 d0 2d 3d
       -0.08721241 -0.02374442 0.0757319 0.04243481
000190 88 8b fd 3c 6c 8b 9a 3d 4c 67 f3 3d 00 5c ec 3b
       0.030950323 0.07546124 0.11884937 0.0072131157
0001a0 40 97 7a 3c 02 49 89 bd f8 f8 89 3d 98 42 cd 3c
       0.01529485 -0.06703378 0.0673694 0.025056168
0001b0 5c 90 02 bd 72 94 8f 3d 60 79 42 3d d8 ab 4e bd
       -0.031875953 0.070107356 0.047479033 -0.05045685
0001c0 f8 c6 39 bd e4 70 00 3d 60 1c 80 bb 8a df 97 3d
       -0.045355767 0.03135766 -0.0039096326 0.074156836
0001d0 18 ca 67 bd 20 21 08 bc 80 f4 42 3b 8c 47 6f 3d
       -0.056589216 -0.008308679 0.0029747784 0.05841784
0001e0 b4 f1 a8 bd fa 93 8a 3d 30 0e eb bc ce 93 cd bd
       -0.08249226 0.067665055 -0.028693289 -0.10037957
0001f0 40 9e 17 3d ce 27 c4 3d ac 75 98 3d 40 5f 40 bb
       0.037016153 0.09577905 0.07444319 -0.0029353648
000200 7e c9 c5 bd 00 9e 2d 3b f8 58 8f 3c 40 25 91 3c
       -0.09657572 0.002649188 0.017498478 0.017717957
000210 70 04 d5 3d 0a ce ac 3d 68 59 c9 3c a6 a4 95 3d
       0.10401237 0.08437736 0.024578765 0.07306795
000220 d2 23 ac 3d 78 30 71 3d 38 1f 4f 3d 52 46 cd 3d
       0.0840527 0.058884114 0.050566882 0.10023178
000230 8a 23 c3 3d 0c dc 6e bd c0 26 4c bc 18 16 52 3d
       0.09528263 -0.05831532 -0.012460411 0.0512906
000240 b4 cf c5 3d 7a 78 d5 3d 8e fb c5 bd f8 3d ea 3c
       0.09658757 0.1042337 -0.09667121 0.028594002
000250 78 f6 d9 3d 32 3b e0 3d c0 15 00 3d f2 a4 99 3d
       0.10642713 0.109487906 0.031270742 0.07502164
000260 82 49 8e 3d 98 93 18 3d b8 a8 5c bd e2 4c f0 3d
       0.06947614 0.03725013 -0.05387184 0.11733414
000270 b0 ad c9 3c b0 91 0d bd c2 42 ca 3d 68 a7 47 3d
       0.024618953 -0.034562767 0.09876014 0.048743635
000280 60 9f 39 bd 8a 8e df bd 4e b9 fd bd 1a a2 87 3d
       -0.045318007 -0.10915859 -0.1238886 0.06622715
000290 60 4f 00 bc a4 bf 74 3d 1a 73 80 3d 90 ea bd 3c
       -0.0078314245 0.059753075 0.06271954 0.023183137
0002a0 54 a7 86 3d 2c 89 d6 3d 8e 5a f3 3d b4 28 55 bd
       0.06574884 0.10475382 0.11882506 -0.05204077
0002b0 ac 01 a5 bd 80 c2 7b 3c 98 93 e4 3c f2 c1 e5 3d
       -0.080569595 0.015366197 0.02790241 0.11218633
0002c0 1c d4 1a 3d ce b8 ac bd 50 e8 f4 3c 84 0d f1 bd
       0.03779994 -0.08433686 0.029895931 -0.11770156
0002d0 34 a9 6f 3d 6c f1 7b 3d 6c a3 9b bd 60 97 00 3c
       0.058510974 0.061509535 -0.075995296 0.007848591
0002e0 9e 82 c8 bd 00 a9 a6 3a fc ea f4 bd ac 4a e4 bd
       -0.09790538 0.0012715161 -0.11958882 -0.11147055
0002f0 08 fc f4 3d 20 4b 6f 3d a0 6b de bc 30 18 da 3d
       0.11962134 0.058421254 -0.027150929 0.10649145
000300 40 b3 29 bd 60 a5 e6 3c 38 c8 48 3d b0 b0 73 3d
       -0.04143071 0.028155029 0.04901907 0.059494674
000310 54 48 50 bd b0 5e b1 3d 2a 1a dd bd 88 e8 e9 bd
       -0.050850227 0.08660638 -0.10796006 -0.11421305
000320 42 bd 82 bd 08 59 e0 bc b8 49 1a 3d f4 b2 fe 3d
       -0.06383754 -0.027386203 0.03766796 0.12436476
000330 10 87 b7 3c 64 92 36 bd 58 df 44 bd f0 a3 e2 3d
       0.02240327 -0.044573203 -0.04806456 0.11066425
000340 50 3f 19 3c 98 ee ba bd 14 18 9b 3d 04 53 56 bd
       0.009353474 -0.091275394 0.07572952 -0.052325264
000350 20 a5 6a bd 48 69 d5 3d 68 ed 3a 3d e6 32 ac 3d
       -0.05728638 0.104204714 0.045636564 0.084081456
000360 b6 e0 f1 3d 68 b9 91 bd 3a 30 e4 3d 0e 1d b0 bd
       0.11810438 -0.071154416 0.11142011 -0.08599292
000370 d4 20 8f 3d a0 9c 61 3c 14 4d 73 3d 16 9d af 3d
       0.06988683 0.0137702525 0.05939968 0.08574884
000380 5c 5e ce bd 80 da e5 3c 88 bb 90 bd fc 88 eb bd
       -0.10076591 0.02805829 -0.07067019 -0.11500737
000390 c2 83 fa bd 00 7d ca 3c be fa 91 bd a4 a7 6f 3d
       -0.12232162 0.024717808 -0.071279034 0.058509484
0003a0 c2 32 88 bd 60 96 17 bd 96 9d b4 bd 64 91 09 bd
       -0.06650306 -0.037008643 -0.0881912 -0.03358592
0003b0 e6 53 c0 3d 44 0b 82 bd 34 8a ec 3d a8 73 2e bd
       0.09391002 -0.06349805 0.11549798 -0.042590767
0003c0 50 35 5a 3d 50 15 e1 3d 28 8a 34 bd 2e 17 c9 3d
       0.0532735 0.10990393 -0.04407707 0.09818874
0003d0 a0 91 8a 3d cc fa 29 bd 56 f5 e0 3d 64 3f 5a 3d
       0.06766057 -0.041498944 0.10984294 0.05328311
0003e0 e4 cc 29 3d 22 26 cf 3d 2e 5a 90 3d e2 6c e5 bd
       0.041455165 0.10114695 0.070484504 -0.112024084
0003f0 82 3a 9d 3d 8e 6c dc bd b0 ee ad bc 56 ad c8 3d
       0.07677175 -0.10762893 -0.02123198 0.09798686

lstm.bias_hh_l0 f4 [256]
000000 30 bd 77 bc a8 8c 95 bd a0 8b 17 bd e2 f3 ed 3d
       -0.015120789 -0.07302219 -0.03699839 0.116187826
000010 b8 05 9f bc 5c 97 e8 3d a0 bb 88 3c e4 9a 86 3d
       -0.019411907 0.113569945 0.01669103 0.06572512
000020 98 69 f5 3d 6a 42 dd bd 38 42 95 bd a8 c1 b4 3d
       0.11983031 -0.10803683 -0.07288021 0.088259995
000030 68 9e 73 3d 80 85 d8 ba d0 e4 7c 3d 38 78 90 3c
       0.05947724 -0.0016519278 0.06174165 0.01763545
000040 50 77 ea 3c 08 9d 92 3d f0 f4 69 bc a8 73 8b 3c
       0.028621346 0.071588576 -0.014279589 0.017022923
000050 80 90 7c 3c 36 e5 ba bd 28 5d e4 bd e2 48 cf bd
       0.015415311 -0.0912575 -0.11150581 -0.10121323
000060 dc 44 81 bd e2 27 b3 3d a4 71 30 3d a0 ee 33 3d
       -0.06311962 0.087478414 0.043077126 0.043928742
000070 40 af f9 3d 5c 33 e1 3d 1c 64 eb bd 3a 75 aa bd
       0.121916294 0.10996124 -0.11493704 -0.083231404
000080 92 6d f8 3d 34 6a e0 3d 10 87 48 bd 18 33 70 3d
       0.12130274 0.10957757 -0.04895693 0.058642477
000090 c8 42 f6 3c 60 77 f6 bd 4e 12 d6 3d c2 6d dd bd
       0.03006114 -0.12034488 0.1045271 -0.1081195
0000a0 b6 fb f3 bd 35 86 fb 3d a8 6a f0 bd 28 92 cf 3c
       -0.119132444 0.12281457 -0.11739093 0.025338247
0000b0 38 ee ba bd b8 5b 11 3d 44 28 07 3d 00 a3 5f bb
       -0.09127468 0.03548786 0.032997385 -0.0034124255
0000c0 20 96 c1 bc e0 ce 59 bd a0 e3 8d 3d f8 c9 bd bc
       -0.023631155 -0.053175807 0.06928182 -0.023167595
0000d0 e4 38 73 bd b8 34 cc bc 44 04 ee bd 9c b6 21 3d
       -0.059380427 -0.024927482 -0.11621907 0.03948079
0000e0 88 37 45 bd 00 56 6f bc 20 5c d8 3c f0 ac e6 3c
       -0.04814866 -0.014607906 0.026411116 0.028158635
0000f0 a0 59 15 bd dc 9e 05 bd 5c 64 d2 3d 92 a3 c7 3d
       -0.036462426 -0.032622203 0.10273048 0.097479954
000100 60 09 b2 3b a0 54 9a bc 1a f5 92 bd 7c 52 94 bd
       0.0054332465 -0.01883918 -0.07175656 -0.07242295
000110 90 65 10 bd 74 e7 dc 3d d2 af 8d 3d d8 c3 c3 bd
       -0.035253108 0.10786334 0.06918301 -0.095588386
000120 38 eb 4a bd 2e 02 bb bd 84 e4 96 3d 6c d2 50 bd
       -0.04954073 -0.09131275 0.07367805 -0.050981924
000130 40 c8 2f bc 48 56 d4 3d 40 58 92 bb 00 ee f5 bb
       -0.010728896 0.10368019 -0.0044660866 -0.0075051785
000140 d2 17 d8 3d 80 4a 87 3c c0 9d 0b 3d 70 51 d9 bc
       0.10551418 0.016515017 0.03408599 -0.02652809
000150 fe 11 da bd 48 6d ba bc de 58 a1 3d c2 a8 ec 3d
       -0.10647963 -0.022757187 0.07878278 0.115556255
000160 80 80 51 3c 80 47 05 bd 5c a3 78 bd 44 30 e9 3d
       0.012786984 -0.03253889 -0.060702667 0.11386159
000170 60 6e f9 bc 6e 93 b6 bd 80 ed 2e 3c 20 c0 44 bc
       -0.030448139 -0.08914839 0.010676742 -0.012008697
000180 20 0f 6c 3c 50 f4 45 3d cc da 53 bd 38 2f b4 bd
       0.014407903 0.048328698 -0.051722333 -0.08798069
000190 b0 d8 6b bc 60 4d e4 3c a8 1b 8c 3c 8a 45 8e 3d
       -0.014394924 0.027868927 0.017103031 0.06946857
0001a0 a8 17 f8 3c 10 12 37 3c 98 c9 ba 3c f4 df fc bd
       0.030284718 0.01117374 0.022801206 -0.12347403
0001b0 ac f0 53 3d d8 39 82 3c 08 c8 e0 3c 64 38 22 3d
       0.051743194 0.015896723 0.027439132 0.03960456
0001c0 2c 3d 66 3d 96 a1 95 bd f4 c5 ee bd dc 7a e4 bd
       0.05621068 -0.07306211 -0.1165885 -0.11156246
0001d0 18 98 84 bd 74 3e 38 3d 5a bb 91 bd 2e 9d cc bd
       -0.06474322 0.044981435 -0.071158126 -0.09990917
0001e0 34 05 08 bd ae 98 cb bd e0 fe 90 bc a8 d2 00 bd
       -0.033208087 -0.09941231 -0.017699659 -0.031450897
0001f0 8c f4 61 bd d4 f6 cf 3d 90 fd 9b bd 40 be 32 3b
       -0.05516486 0.101545006 -0.076167226 0.0027274042
000200 38 af b6 3d dc 5b 78 bd 6e 15 c9 3d 90 b5 9e 3c
       0.08920139 -0.06063448 0.098185405 0.019373685
000210 a0 ea da bd ac 60 9f 3d bc 80 2e 3d fc 2e 3b 3d
       -0.106892824 0.077821106 0.04260324 0.045699105
000220 dc bb a8 3d d0 37 65 3d b2 72 d1 bd a0 c1 f6 bb
       0.08238956 0.05596143 -0.102269545 -0.007530406
000230 d0 64 e0 3d 94 92 16 bd c0 e0 79 bc 64 0a 05 bd
       0.109567285 -0.03676088 -0.0152513385 -0.032480612
000240 60 a3 c5 3b 4c 20 4b bd 3e 18 eb bd 20 79 fc 3d
       0.0060314387 -0.049591348 -0.11479233 0.1232779
000250 98 5a 1a 3d fa ef a1 bd e8 41 d3 3d 64 4e e2 bd
       0.037684053 -0.079071 0.10315305 -0.11050108
000260 10 98 60 bd 38 2a 92 3c 8c 88 06 3d 20 6b 4a bc
       -0.054832518 0.017842397 0.032845065 -0.012354642
000270 e0 70 e9 3c 06 c8 ba bd 26 1a ed bd 0c 86 06 3d
       0.028496206 -0.09120183 -0.11577253 0.03284268
000280 84 2f 15 bd 64 29 e8 bd 00 37 c2 3b 38 8c 7c bd
       -0.036422268 -0.1133602 0.0059269667 -0.06165716
000290 94 c8 db 3d 90 c6 87 bc e6 de 9a bd 18 eb a1 bc
       0.107316166 -0.016574174 -0.07562046 -0.019765422
0002a0 bc 37 62 3d e0 30 ca 3d 9e 8e f6 3d 40 5d 13 bd
       0.055228934 0.098726034 0.12038921 -0.035977602
0002b0 20 83 c1 bb c0 94 9e bb da 93 f7 bd e0 d3 09 bc
       -0.005905524 -0.0048395097 -0.12088747 -0.008412331
0002c0 e4 85 ad bd c0 45 7f bc 38 8d e0 bd 10 cc 1c bc
       -0.08472803 -0.015580595 -0.10964435 -0.009570137
0002d0 e8 7c 85 3d a8 3f 5c 3d a0 cd 52 bd 68 6d 1c 3d
       0.065179646 0.053771645 -0.05146563 0.038190275
0002e0 a4 00 af bd 58 e6 81 3d e0 20 21 bc d6 36 b8 3d
       -0.08545044 0.06342763 -0.009834498 0.08994834
0002f0 c0 fb 17 3b 28 3a 8d 3c 30 56 c7 3d 74 4f 02 bd
       0.0023190826 0.017239645 0.09733236 -0.031814054
000300 80 69 f4 bc 8e 6a a0 3d 00 1c eb 39 e8 f0 d7 3d
       -0.029835463 0.07832824 0.00044843554 0.10543996
000310 88 f2 ff bc a8 a4 12 3d 70 00 6b 3d 60 40 65 3c
       -0.031243578 0.03580156 0.057373464 0.013992399
000320 5e 08 96 3d 06 f4 9a bd e4 45 54 bd 32 eb ea bd
       0.07325815 -0.07566075 -0.051824465 -0.11470641
000330 46 83 e7 3d 44 0d b7 3d a0 6d c1 3d ba 4b 8a bd
       0.11304335 0.08938077 0.094447374 -0.06752725
000340 f4 68 a7 bd d8 87 ef bd 80 0d d3 3a ee 73 ae 3d
       -0.08174315 -0.11695832 0.0016102046 0.085182056
000350 58 23 11 bd c2 b0 ec bd 28 e1 de 3c f8 10 36 bd
       -0.035434097 -0.115571514 0.027206972 -0.044449776
000360 84 13 b5 bd 94 8b 62 3d 8e 97 ad 3d 00 94 91 39
       -0.08841613 0.055308893 0.084761724 0.00027766824
000370 74 d4 73 3d 88 29 ad 3d 70 8b 9a bd 90 0c db bd
       0.059528783 0.08455187 -0.07546127 -0.106957555
000380 a6 0c ef 3d 74 bd 7f 3d 5e 4e f6 3d 50 1d 7e 3d
       0.116723344 0.062436536 0.12026666 0.062039673
000390 e2 58 f6 bd 50 75 71 bc 02 c2 85 3d 14 d3 71 3d
       -0.12028672 -0.014737442 0.06531145 0.05903919
0003a0 d4 01 c5 3d e4 e9 ba bd 66 f7 92 bd 28 85 cd bd
       0.09619489 -0.09126642 -0.07176094 -0.10035163
0003b0 10 79 65 bc dc 50 9e 3d 42 9f e9 bd 88 9a ae 3d
       -0.014005914 0.077302665 -0.11407329 0.08525568
0003c0 ba a6 8f 3d 40 6e 01 3d 30 f8 e4 3d a0 60 30 3d
       0.070142224 0.031599283 0.111801505 0.0430609
0003d0 a2 01 e7 3d 6c 93 36 bd 38 d8 21 bd 70 6f e5 3d
       0.11279608 -0.044574186 -0.039512843 0.11202896
0003e0 68 17 4a 3d 80 15 67 bc 00 73 30 bd 50 e9 53 3d
       0.04933873 -0.014104247 -0.043078423 0.051736176
0003f0 02 4f c9 bd 5c 32 e6 bd 70 2b 9d bc 98 a1 bc 3c
       -0.09829523 -0.11240074 -0.019185752 0.023026273

fc.weight f4 [6, 64]
000000 a1 a3 65 3d ae 47 05 be a8 43 a4 bc 60 9f fc 3b
       0.05606425 -0.13015625 -0.020051792 0.0077094287
000010 c6 a2 ac bd fc f3 00 be 80 84 78 bb 2d 37 39 3e
       -0.08429484 -0.12593073 -0.0037920773 0.18087454
000020 ca 5e b6 3d 04 ba 4a bd 2c 8f 36 be 86 83 de 3c
       0.08904798 -0.049493805 -0.17828053 0.027162325
000030 0e ea 39 3c 01 3b 24 3d ce a8 5e 3e f7 a8 ea 3d
       0.011347307 0.040095333 0.21744081 0.11458009
000040 64 cb 28 3d 30 15 13 bc 5d da 35 3e 10 db a7 bc
       0.041209593 -0.008977219 0.1775908 -0.0204902
000050 00 a6 1c 3b 30 d7 72 3c 00 cb 28 bb a0 a6 dc bc
       0.0023902655 0.0148218125 -0.0025755763 -0.026934922
000060 7a 5a e0 3d 7a 22 48 bc f9 93 30 be 8c 82 47 3e
       0.10954757 -0.012215251 -0.17243947 0.19483393
000070 9c ee 4a bd 0c bb 69 3c c0 c9 c0 3c 26 81 81 3d
       -0.049543962 0.014265787 0.023533702 0.06323461
000080 cf 8c 99 bd 58 b1 67 bd d2 56 7d bd a4 f3 c8 bd
       -0.0749756 -0.056565613 -0.061850376 -0.09812096
000090 f4 3d e3 bd 54 db 21 be 2a 12 89 3d 38 8c 01 bd
       -0.11095801 -0.15806323 0.06692918 -0.031627864
0000a0 a9 aa 71 bc 1f 5e 4a 3e 78 67 3d bd 44 a1 a9 bd
       -0.014750161 0.19762467 -0.046241254 -0.08282712
0000b0 75 a5 51 be d0 7a 3a bd 0f 31 e8 3d 90 ea 25 3d
       -0.20473273 -0.04552728 0.11337482 0.0405069
0000c0 60 79 3d bc e0 f3 c7 bd 1c 27 0c 3d 01 2c 1b be
       -0.011564583 -0.09763312 0.034216985 -0.15153505
0000d0 40 a7 16 3d 89 c1 21 3d 74 1d a9 bd 68 61 42 be
       0.036780596 0.03949121 -0.08257571 -0.1898247
0000e0 45 46 02 be b6 46 1e 3e 4c 47 5b 3d e3 ee 0f 3d
       -0.12722118 0.15456662 0.05353479 0.03513993
0000f0 86 8f f6 3d 23 34 87 3d 71 6e b2 3d f4 a3 b7 bd
       0.12039094 0.06601741 0.08712471 -0.089668185
000100 32 77 f3 bd db 00 e5 3c 2a 03 bc 3d 0c c8 57 bd
       -0.11887969 0.02795451 0.09180291 -0.052681014
000110 a8 52 bb 3d e9 12 e2 bd fe 7d fe bd 41 c3 23 3d
       0.09146625 -0.11038763 -0.12426375 0.03998113
000120 92 fd d9 3d d8 e1 79 bd ec 33 51 bd a3 9b d9 bc
       0.10644068 -0.061006397 -0.051074907 -0.026563471
000130 04 c1 1f 3e ea ea 43 3e d0 5b 29 3e e2 b5 be bb
       0.15600973 0.19132581 0.1653893 -0.005820022
000140 16 48 3e bd 74 d0 ab 3d c7 06 14 3e 80 3f 8b 3d
       -0.046455465 0.08389369 0.1445571 0.06799221
000150 5a 7d 8f 3d 02 6e f2 bd 0c 51 5b 3d 54 11 80 bd
       0.07006331 -0.118373886 0.05354409 -0.06253305
000160 08 e2 79 bd 50 64 4c be f2 29 4b 3e f1 2b 99 bb
       -0.061006576 -0.19960141 0.1984022 -0.0046744277
000170 ec 99 6a 3d cd aa 29 be b0 25 f2 bc 70 56 9b bd
       0.057275698 -0.16569062 -0.029558986 -0.07584846
000180 60 a7 52 3e 3c 6b 5a 3d 24 e5 bc ba 0c 1f fd 3d
       0.20571661 0.053324923 -0.0014411551 0.12359437
000190 6e e3 f6 3c f1 bb c7 3d da f0 a4 3d 5e 62 a4 bd
       0.030137744 0.09752644 0.08053751 -0.080265746
0001a0 a1 48 4d bd f7 79 a0 bd 80 52 9a bc 66 bd e0 3d
       -0.050118092 -0.07835763 -0.018838167 0.10973625
0001b0 51 0b b0 3d 56 10 dc 3d 60 ca c7 bc 35 7e 82 3d
       0.085959084 0.10745303 -0.024388492 0.06371728
0001c0 02 b8 d2 3d e6 56 1a 3e 30 6e d3 3c a7 f3 b9 bd
       0.10289003 0.15072212 0.025809377 -0.09079676
0001d0 b0 ee d5 3c 54 50 b5 bc a6 c9 c0 bd 2c 44 0c be
       0.026114792 -0.02213303 -0.094134614 -0.1369788
0001e0 56 aa 2b be 57 41 ac bb 50 ba b5 bd 07 96 37 3e
       -0.16764197 -0.0052568126 -0.08873427 0.17928325
0001f0 00 12 e2 3d 5c 33 92 3d fe db ee 3c ee fe 94 3d
       0.110385895 0.07138702 0.029157635 0.072751865
000200 df f3 e6 3d 94 73 57 3e b0 e0 3e 3d d4 34 51 bd
       0.112769835 0.21040183 0.046600997 -0.05107577
000210 b0 3e 73 3c 04 f1 03 3e ae 56 ba bd 72 47 00 be
       0.014846489 0.12884909 -0.09098564 -0.12527254
000220 00 33 8f 3b ae c0 df bd b8 2a de 3d 4b 15 f3 3d
       0.0043700933 -0.109254226 0.10847992 0.11869296
000230 cc 46 87 bd 44 d5 aa 3d 47 52 17 bd 3c 2a aa 3d
       -0.066053 0.083414584 -0.0369437 0.08308837
000240 94 58 32 bd 3a 08 d4 bd 74 ef e4 3a a0 1f cb 3d
       -0.043541506 -0.103531316 0.0017466382 0.09918141
000250 06 46 96 bd 10 e3 68 bd 98 38 84 3c b4 ea 36 bd
       -0.07337575 -0.05685717 0.016140267 -0.044657424
000260 5c d9 21 3d 4f 03 31 3e 5e d4 21 be c5 86 29 bd
       0.03951393 0.17286418 -0.15803668 -0.041388292
000270 8a 5c c6 3d 6e 44 4e 3e d2 da 9e bd 76 aa c7 3d
       0.09685619 0.20143291 -0.077565804 0.0974931
000280 7d e6 56 bb 68 2b c1 bd 6e c9 e4 3d d0 7c 19 3c
       -0.003279119 -0.09432107 0.11171232 0.0093681365
000290 2e 30 10 3c 3b ce 75 3c c4 32 c1 bd d0 00 ca 3d
       0.008800549 0.015002782 -0.09433511 0.09863436
0002a0 ca 1c 02 3e 87 d0 34 be 90 02 cc 3c 8e 89 88 3d
       0.12706295 -0.17657672 0.024903566 0.066668615
0002b0 4d be b1 bc f0 63 07 3d 0a ae 86 bd 01 b9 ed bb
       -0.021697188 0.033054292 -0.06576164 -0.00725472
0002c0 28 36 e3 3c 61 c8 07 be 64 4d 65 3d 99 86 ff 3d
       0.027735785 -0.13260032 0.05598201 0.12476844
0002d0 9c 37 7c 3d e4 0a a7 bd 28 f5 b8 bd f0 b7 db 3d
       0.06157647 -0.08156374 -0.09031135 0.10728443
0002e0 13 17 8d 3c 84 d8 a2 3d d0 04 d7 3d 3d 86 79 bb
       0.017222917 0.07951453 0.10498965 -0.0038074397
0002f0 cc cf 08 bd 29 d6 81 3d 44 35 b7 bd ff aa 81 bb
       -0.033401296 0.06339676 -0.089457065 -0.003957152
000300 aa d4 39 be 76 b7 0e bd a0 66 41 3d 7c 9e 3c 3d
       -0.18147531 -0.03484293 0.04721701 0.04604958
000310 64 0c 2a 3d 2a 81 06 bd 80 f2 70 3c c6 f8 46 be
       0.041515723 -0.032838024 0.014706254 -0.19430837
000320 b6 ef e0 3d e4 86 c5 bd a7 28 0b 3e 6b bb dd 3d
       0.10983221 -0.09644869 0.13589726 0.10826763
000330 ad f6 a2 3c e5 95 3f be 3a 4d 0d 3d a8 d1 95 bd
       0.019893015 -0.18709524 0.034497477 -0.073153794
000340 7b a4 c5 3d d6 1e 98 3d 39 36 ea bd 20 5f 94 bc
       0.09650513 0.074277565 -0.114361234 -0.018111765
000350 0a fd fb 3d bc 4e e1 bd 30 8a d2 bc e8 59 d9 3d
       0.12304123 -0.110013455 -0.025700659 0.106128514
000360 ac a9 2f bd dd b8 e1 3d 1c b4 db 3d 97 17 ff bd
       -0.04288642 0.11021588 0.107277125 -0.12455671
000370 b0 68 d3 3c 9e 64 cd 3d 48 1a b6 bd 90 c9 49 bc
       0.025806755 0.10028957 -0.088917315 -0.012316123
000380 c6 d5 a3 3d 6c 45 a7 bd ab 17 88 bc 7c c9 c0 bd
       0.079997584 -0.08167538 -0.016612848 -0.0941343
000390 5f d9 35 bd ae a6 3f 3e 90 61 98 bc a0 dc 0a 3c
       -0.044396754 0.18715927 -0.018601209 0.008475453
0003a0 98 3f 18 bd ba 2f fd bc 10 2e f4 bd 28 30 48 3d
       -0.037170023 -0.030906547 -0.11922848 0.04887405
0003b0 96 6a 42 3e 3c 46 9d 3d 21 97 00 be fd fc 49 bc
       0.18985972 0.07679412 -0.12557651 -0.0123283835
0003c0 e0 db 32 3d 63 3c 1e 3e 8e a3 b4 3d 67 75 10 3d
       0.04366672 0.15452723 0.08820258 0.035268214
0003d0 18 d3 67 3d bc 48 16 3d 86 ad fc bd 1c 99 11 3e
       0.0565978 0.03669046 -0.123377845 0.14218563
0003e0 ea 4d 27 3e bf 0d c0 bc 1e 36 d2 bd f5 4a c1 3d
       0.16338316 -0.023444055 -0.10264228 0.09438125
0003f0 00 df 15 ba 27 5d fe bc 2b 4b c2 bd fc 24 54 3d
       -0.00057171285 -0.031050278 -0.094869934 0.051793084

fc.bias f4 [6]
000000 c8 5c 4d 3d de 3f 05 bd 0c 09 d2 bd c7 ed 30 3d
       0.05013731 -0.03253161 -0.10255632 0.043195512
000010 bc 75 98 bd a6 4d 13 bb
       -0.07444331 -0.0022476702
